…
Downloading https://github.com/ultralytics/yolov5/releases/download/v6.1/yolov5s.pt to yolov5s.pt...
  0% 0.00/14.1M [00:00<?, ?B/s] 12% 1.66M/14.1M [00:00<00:01, 11.2MB/s] 24% 3.34M/14.1M [00:00<00:01, 11.0MB/s] 34% 4.85M/14.1M [00:00<00:00, 10.2MB/s] 46% 6.55M/14.1M [00:00<00:00, 10.6MB/s] 57% 8.01M/14.1M [00:00<00:00, 9.94MB/s] 69% 9.73M/14.1M [00:00<00:00, 10.5MB/s] 81% 11.4M/14.1M [00:01<00:00, 10.8MB/s] 91% 12.9M/14.1M [00:01<00:00, 10.2MB/s]100% 14.1M/14.1M [00:01<00:00, 10.7MB/s]

Overriding model.yaml nc=80 with nc=22

                 from  n    params  module                                  arguments                     
  0                -1  1      3520  models.common.Conv                      [3, 32, 6, 2, 2]              
  1                -1  1     18560  models.common.Conv                      [32, 64, 3, 2]                
  2                -1  1     18816  models.common.C3                        [64, 64, 1]                   
  3                -1  1     73984  models.common.Conv                      [64, 128, 3, 2]               
  4                -1  2    115712  models.common.C3                        [128, 128, 2]                 
  5                -1  1    295424  models.common.Conv                      [128, 256, 3, 2]              
  6                -1  3    625152  models.common.C3                        [256, 256, 3]                 
  7                -1  1   1180672  models.common.Conv                      [256, 512, 3, 2]              
  8                -1  1   1182720  models.common.C3                        [512, 512, 1]                 
  9                -1  1    656896  models.common.SPPF                      [512, 512, 5]                 
 10                -1  1    131584  models.common.Conv                      [512, 256, 1, 1]              
 11                -1  1         0  torch.nn.modules.upsampling.Upsample    [None, 2, 'nearest']          
 12           [-1, 6]  1         0  models.common.Concat                    [1]                           
 13                -1  1    361984  models.common.C3                        [512, 256, 1, False]          
 14                -1  1     33024  models.common.Conv                      [256, 128, 1, 1]              
 15                -1  1         0  torch.nn.modules.upsampling.Upsample    [None, 2, 'nearest']          
 16           [-1, 4]  1         0  models.common.Concat                    [1]                           
 17                -1  1     90880  models.common.C3                        [256, 128, 1, False]          
 18                -1  1    147712  models.common.Conv                      [128, 128, 3, 2]              
 19          [-1, 14]  1         0  models.common.Concat                    [1]                           
 20                -1  1    296448  models.common.C3                        [256, 256, 1, False]          
 21                -1  1    590336  models.common.Conv                      [256, 256, 3, 2]              
 22          [-1, 10]  1         0  models.common.Concat                    [1]                           
 23                -1  1   1182720  models.common.C3                        [512, 512, 1, False]          
 24      [17, 20, 23]  1     72819  models.yolo.Detect                      [22, [[10, 13, 16, 30, 33, 23], [30, 61, 62, 45, 59, 119], [116, 90, 156, 198, 373, 326]], [128, 256, 512]]
Model summary: 270 layers, 7078963 parameters, 7078963 gradients, 16.1 GFLOPs

Transferred 343/349 items from yolov5s.pt
[34m[1mAMP: [0mchecks passed ✅
Scaled weight_decay = 0.0005
…
