…
 63% 56.0M/89.3M [00:01<00:00, 37.0MB/s] 67% 60.0M/89.3M [00:01<00:00, 31.7MB/s] 72% 64.0M/89.3M [00:01<00:00, 29.4MB/s] 76% 68.0M/89.3M [00:01<00:00, 27.8MB/s] 81% 72.0M/89.3M [00:02<00:00, 26.8MB/s] 85% 76.0M/89.3M [00:02<00:00, 26.0MB/s] 90% 80.0M/89.3M [00:02<00:00, 25.6MB/s] 94% 84.0M/89.3M [00:02<00:00, 25.3MB/s] 99% 88.0M/89.3M [00:02<00:00, 25.5MB/s]100% 89.3M/89.3M [00:02<00:00, 33.5MB/s]

Overriding model.yaml nc=80 with nc=22

                 from  n    params  module                                  arguments                     
  0                -1  1      7040  models.common.Conv                      [3, 64, 6, 2, 2]              
  1                -1  1     73984  models.common.Conv                      [64, 128, 3, 2]               
  2                -1  3    156928  models.common.C3                        [128, 128, 3]                 
  3                -1  1    295424  models.common.Conv                      [128, 256, 3, 2]              
  4                -1  6   1118208  models.common.C3                        [256, 256, 6]                 
  5                -1  1   1180672  models.common.Conv                      [256, 512, 3, 2]              
  6                -1  9   6433792  models.common.C3                        [512, 512, 9]                 
  7                -1  1   4720640  models.common.Conv                      [512, 1024, 3, 2]             
  8                -1  3   9971712  models.common.C3                        [1024, 1024, 3]               
  9                -1  1   2624512  models.common.SPPF                      [1024, 1024, 5]               
 10                -1  1    525312  models.common.Conv                      [1024, 512, 1, 1]             
 11                -1  1         0  torch.nn.modules.upsampling.Upsample    [None, 2, 'nearest']          
 12           [-1, 6]  1         0  models.common.Concat                    [1]                           
 13                -1  3   2757632  models.common.C3                        [1024, 512, 3, False]         
 14                -1  1    131584  models.common.Conv                      [512, 256, 1, 1]              
 15                -1  1         0  torch.nn.modules.upsampling.Upsample    [None, 2, 'nearest']          
 16           [-1, 4]  1         0  models.common.Concat                    [1]                           
 17                -1  3    690688  models.common.C3                        [512, 256, 3, False]          
 18                -1  1    590336  models.common.Conv                      [256, 256, 3, 2]              
 19          [-1, 14]  1         0  models.common.Concat                    [1]                           
 20                -1  3   2495488  models.common.C3                        [512, 512, 3, False]          
 21                -1  1   2360320  models.common.Conv                      [512, 512, 3, 2]              
 22          [-1, 10]  1         0  models.common.Concat                    [1]                           
 23                -1  3   9971712  models.common.C3                        [1024, 1024, 3, False]        
 24      [17, 20, 23]  1    145395  models.yolo.Detect                      [22, [[10, 13, 16, 30, 33, 23], [30, 61, 62, 45, 59, 119], [116, 90, 156, 198, 373, 326]], [256, 512, 1024]]
Model summary: 468 layers, 46251379 parameters, 46251379 gradients, 108.6 GFLOPs

Transferred 607/613 items from yolov5l.pt
[34m[1mAMP: [0mchecks passed ✅
Scaled weight_decay = 0.0005
…
